Model: "sequential"
_________________________________________________________________
Layer (type)                 Output Shape              Param #   
=================================================================
conv2d (Conv2D)              (None, 78, 78, 48)        480       
_________________________________________________________________
activation (Activation)      (None, 78, 78, 48)        0         
_________________________________________________________________
max_pooling2d (MaxPooling2D) (None, 39, 39, 48)        0         
_________________________________________________________________
conv2d_1 (Conv2D)            (None, 37, 37, 16)        6928      
_________________________________________________________________
activation_1 (Activation)    (None, 37, 37, 16)        0         
_________________________________________________________________
conv2d_2 (Conv2D)            (None, 35, 35, 224)       32480     
_________________________________________________________________
activation_2 (Activation)    (None, 35, 35, 224)       0         
_________________________________________________________________
conv2d_3 (Conv2D)            (None, 33, 33, 240)       484080    
_________________________________________________________________
activation_3 (Activation)    (None, 33, 33, 240)       0         
_________________________________________________________________
flatten (Flatten)            (None, 261360)            0         
_________________________________________________________________
dense (Dense)                (None, 10)                2613610   
_________________________________________________________________
activation_4 (Activation)    (None, 10)                0         
=================================================================
Total params: 3,137,578
Trainable params: 3,137,578
Non-trainable params: 0
_________________________________________________________________
None
